# YOLOv5 🚀 by Ultralytics, GPL-3.0 license

# Parameters
nc: 19  # number of classes
depth_multiple: 1.0  # model depth multiple
width_multiple: 1.0  # layer channel multiple
anchors:
  - [10,13, 16,30, 33,23]  # P3/8
  - [30,61, 62,45, 59,119]  # P4/16
  - [116,90, 156,198, 373,326]  # P5/32

# YOLOv5 v6.0 backbone
backbone:
  # [from, number, module, args]
  [[-1, 1, Conv_BN_HSwish, [16, 2]],                              # 0-p1/2    320
   [-1, 1, MobileNetV3_InvertedResidual, [32,  32,  3, 2, 1, 1]],  # 1-p2/4    160
   [-1, 1, MobileNetV3_InvertedResidual, [32,  64,  5, 1, 1, 1]],   # 2
   [-1, 1, MobileNetV3_InvertedResidual, [64,  64,  3, 2, 1, 1]],  # 3-p3/8     80
   [-1, 1, MobileNetV3_InvertedResidual, [64,  128,  3, 1, 1, 1]],
   [-1, 1, MobileNetV3_InvertedResidual, [128, 128, 5, 2, 1, 1]],  # 5-p4/16    40
   [-1, 1, MobileNetV3_InvertedResidual, [128, 256, 5, 1, 1, 1]],
   [-1, 1, MobileNetV3_InvertedResidual, [256, 256, 5, 2, 1, 1]],  # 7-p5/32    20
   [-1, 1, MobileNetV3_InvertedResidual, [256, 512, 5, 1, 1, 1]],  # 8
   [-1, 1, SPPF, [256, 5]],                                        # 9
  ]
 

# YOLOv5 v6.0 head
head:
  [[-1, 1, Conv, [128, 1, 1]], # 10 
   [-1, 1, nn.Upsample, [None, 2, 'nearest']],
   [[-1,6], 1, Concat, [1]],  # cat backbone P4
   [-1, 3, CBAM, [256]],             
 
   [-1, 1, Conv, [256, 1, 1]], # 14
   [-1, 1, nn.Upsample, [None, 2, 'nearest']],
   [[-1, 4], 1, Concat, [1]],  # cat backbone P3
   [-1, 3, CBAM, [320]],     # 17 (P3/8-small)
 
   [-1, 1, Conv, [320, 3, 2]],
   [[-1, 14], 1, Concat, [1]],  # cat head P4
   [-1, 3, CBAM, [576]],         # 20 (P4/a16-medium)
 
   [-1, 1, Conv, [576, 3, 2]],
   [[-1, 10], 1, Concat, [1]],  # cat head P5
   [-1, 3, CBAM, [704]],   # 23 (P5/32-large)
 
   [[17, 20, 23], 1, Detect, [nc, anchors]],  # Detect(P3, P4, P5)
  ]